Assignment1/best_word2vec_model.pth (torch, 174104 bytes, 8 tensors)

fc1.weight f4 [50, 420]
00000000: 95b8 113d ec42 d4bc 110c 3bbd b0c5 4dbc
00000010: b467 d1bc 723c f1bc c055 13bd e9dd 9cbc
00000020: fbd1 b5bc a5dd 203d f043 27bd 44db 70bc
00000030: d6b1 d53c 0e62 d33c 212e 23bd 8013 a7bb
00000040: 4882 e8bb 2998 283d c224 d5bc ac14 1e3c
00000050: 9a27 18bd a04b e0bb 429b 923c efac 40bd
00000060: 0093 fc39 499c 01bd 04b9 143c 9a4f 04bd
00000070: be26 e63c a67a 07bd c86c 303c 0d73 3b3d
00000080: 5200 9b3c 4045 943a d850 c9bb 807f d23b
00000090: 93f5 2e3d 339e 13bd 2a36 3abd 6370 143d
000000a0: c42a 21bd e78a 413d 18f8 debb 8fd1 cfbc
000000b0: 3ece d73c d029 ebbb 2a6c f13c dd0e efbc
000000c0: 00f8 09b8 6f64 063d fa07 9e3c e4dd 2cbd
000000d0: 4155 d8bc 9a26 36bd b9c5 3ebd a960 3a3d
000000e0: 3c4a 72bc bae9 c0bc 5886 963b 78c9 54bc
000000f0: 73ae 293d 4ee3 d6bc faa8 26bd d158 45bd
00000100: 0eec 8a3c bf35 2fbd dd18 1d3d 2898 b4bc
00000110: c9bc 25bd cb2b 40bd 5086 5dbc c7c4 40bd
00000120: 783c b8bc b490 0fbd e8b1 82bb 6d2d 343d
00000130: 7c4c 293c 9a62 d33c 3235 a13c a51b 273d
00000140: f00f a1bb 3bc6 113d 1471 dbbc 0b6d 3d3d
00000150: 7bb2 123d f6f9 fe3c cbe2 243d 003b 913b
00000160: 000f c13b 9e90 8fbc 0bdd febc 9c25 1ebd
00000170: 8d2d a4bc 482f 27bd afd0 083d 6b89 183d
00000180: f0e8 43bb 7f26 033d 46df df3c 9098 b9bb
00000190: 0e00 843c 3c4e d2bc d825 433c 3416 0abc
000001a0: b439 67bc 2ee3 ef3c 80f3 273c e738 313d
000001b0: 40bb 33ba 65ca 183d 101f b7bb 4054 04bd
000001c0: 13c9 22bd 06ae dfbc 3a5c 1abd 7818 11bd
000001d0: 4e85 ac3c 9da0 42bd 228b b63c 843a 383c
000001e0: 86a4 f5bc 1499 3d3c 970c 98bc 4cfa 89bc
000001f0: 26ac 8d3c 2a6a aa3c 80d1 123b 195f 1d3d
00000200: 7227 db3c d459 1cbd 402c fd3b eef3 a33c
00000210: 36c5 8abc 062f e4bc 30b5 593c 5a56 843c
00000220: 0016 3cb9 528a c83c 7250 8abc c06d 5e3b
00000230: d02a c53b 70b4 d6bb e0c7 a1ba f083 993b
00000240: 2c64 123c e0f5 91ba 9715 033d ea43 a73c
00000250: 6afa 903c e54f 383d f8cf 563c c8c0 fbbb
00000260: 9c53 2abd c86e 63bc 7f84 3b3d 2821 eabb
00000270: 3849 e73b b0ba 453b f57b 13bd 80fb 413c
00000280: 6784 383d 1f6a 98bc 60d0 c13b 123f 01bd
00000290: 00cd 293b 935f cfbc 2ecd e43c 9d8b 203d
000002a0: cdba acbc 80fb 87ba 007a 07bd f2d7 0cbd
000002b0: e48f 24bd 50ee 093b c78e f2bc 408a a4ba
000002c0: 30ef 4b3c 8888 a03b 02a6 8f3c 005f fa39
000002d0: 512a 3e3d 0988 213d 2199 193d d6b0 8dbc
000002e0: 5141 433d b8a8 2fbc b811 2e3c 80d9 283c
000002f0: 7ca4 613c a1be 043d d8e3 c7bc 6c5a 21bd
00000300: 7609 b93c 49f6 02bd e5f1 31bd e543 ecbc
00000310: 949e 203c 1acc 923c c8f1 243c 636e 2abd
00000320: 16f5 fc3c 1f26 353d b02e 73bc fe2f 933c
00000330: 508b 47bc f534 203d 8845 2fbd 13af bfbc
00000340: 8053 a43b c06f dfbb 5ab2 e63c 80e6 043a
00000350: 5ffe 143d dbcd b8bc 8e76 84bc 260b 25bd
00000360: 7390 3e3d 00cf 76ba 72ce c03c ea1c bb3c
00000370: 9988 96bc 5373 06bd 71c3 293d 0846 b63b
00000380: d167 023d c04d d7bb 0000 c0bb 2ee8 c93c
00000390: 4cdb 3e3c 734c 1a3d ce2e ff3c 102b d8bb
000003a0: 362a 84bc f6c9 8fbc c620 b93c 2fb6 2ebd
000003b0: 3f58 053d 3e6f ab3c 18a5 e3bb 893b 21bd
000003c0: f14b 073d c822 a43b 2682 b43c 6f61 063d
000003d0: eb65 2bbd 5a8f 11bd 2f98 083d 22c9 01bd
000003e0: 7878 b0bb 1074 503b ef12 2d3d a89e 3ebc
000003f0: e06c 913b c251 b73c 3ca5 793c 08c9 bdbb
0.03557642 -0.025910817 -0.045665804 -0.012559339 -0.025562145 -0.029447768 -0.03597045 -0.019148784
-0.022194853 0.039273877 -0.040836275 -0.0147007145 0.026085775 0.025803592 -0.039838914 -0.00509876
-0.007095609 0.041160736 -0.026018504 0.009648483 -0.037147142 -0.0068449527 0.017896298 -0.047039922
0.0004817471 -0.031643186 0.009077314 -0.032302476 0.028094646 -0.03307595 0.010768123 0.045764018
0.018921051 0.0011312142 -0.0061436705 0.0064238906 0.042714667 -0.036039542 -0.04546181 0.036239993
-0.039347425 0.04725161 -0.0068044774 -0.02536848 0.026343461 -0.0071766153 0.029470522 -0.029181892
-3.2894313e-05 0.032810625 0.019290913 -0.0422038 -0.02640784 -0.044470407 -0.04657528 0.04550234
-0.014788207 -0.02354895 0.0045936517 -0.012987487 0.041426133 -0.026231434 -0.040688492 -0.048180405
0.016958263 -0.042775866 0.03835379 -0.02204521 -0.040463243 -0.046916764 -0.013520792 -0.04706266
-0.022489771 -0.03505011 -0.0039884932 0.043988634 0.010333177 0.025803853 0.019678686 0.04079785
-0.00491523 0.035589438 -0.026787318 0.04624657 0.035814743 0.03112505 0.04025535 0.004432082
0.0058916807 -0.017525014 -0.03111126 -0.038610086 -0.020041252 -0.040816575 0.03340214 0.037240427
-0.002989348 0.032019135 0.027328145 -0.005663939 0.016113307 -0.02567207 0.011910878 -0.008428145
-0.014112879 0.029283132 0.010250926 0.043267157 -0.00068562105 0.037302393 -0.0055884197 -0.03230691
-0.03974254 -0.02730466 -0.03768561 -0.035423726 0.021059658 -0.047516454 0.02228314 0.01124442
-0.029985677 0.011572141 -0.01856069 -0.016842984 0.017294 0.020802576 0.0022402704 0.03842077
0.026752207 -0.038171604 0.0077262223 0.020013776 -0.01693974 -0.027854454 0.013287827 0.016154457
-0.00017937273 0.024480019 -0.016884062 0.0033939928 0.0060170665 -0.0065522715 -0.0012342893 0.0046849176
0.008935016 -0.0011135899 0.03200301 0.020418126 0.017697532 0.04499807 0.013111107 -0.0076828934
-0.041583642 -0.013881393 0.045780655 -0.007145066 0.007058289 0.003017109 -0.036006887 0.011839747
0.045048144 -0.01860529 0.005914733 -0.03155429 0.0025909543 -0.025314128 0.027929869 0.039195646
-0.021085167 -0.0010374635 -0.033075333 -0.03438563 -0.040176287 0.0021046586 -0.029609097 -0.0012553409
0.012447163 0.0048990883 0.017535213 0.00047754496 0.046427075 0.039436374 0.03749955 -0.017296236
0.047669712 -0.010721378 0.010624342 0.010305762 0.013772126 0.03240836 -0.024400637 -0.039392874
0.02258752 -0.031973157 -0.04344358 -0.028840968 0.009803433 0.017919589 0.010067411 -0.04160918
0.030878585 0.04422581 -0.014842674 0.01796722 -0.012179211 0.039113004 -0.04279092 -0.023398912
0.005014837 -0.0068187416 0.028161217 0.00050697476 0.0363754 -0.022559097 -0.016169813 -0.040293835
0.046524476 -0.00094150007 0.02353594 0.022840936 -0.018375682 -0.032824825 0.041446153 0.0055625476
0.03183729 -0.006570548 -0.005859375 0.024646845 0.011648964 0.037670564 0.031150248 -0.0065969303
-0.016133409 -0.017552357 0.022598635 -0.042654213 0.03255486 0.020927068 -0.006947171 -0.039363418
0.033031408 0.005009029 0.022034716 0.032807764 -0.041845243 -0.0355371 0.03334826 -0.031685956
-0.0053854547 0.003180746 0.042254385 -0.011634506 0.0044380277 0.022377852 0.015237149 -0.005791787

fc1.bias f4 [50]
00000000: d54e 35bd e92c 123d 05a8 c2bc 8583 023d
00000010: fbe9 17bd 3215 26bd a5cd dd3c bd52 833d
00000020: 505f f6bc 071c d13c 3786 db3c cf40 94bc
00000030: dcf0 5d3d c1db 34bd 0c15 3d3d 1851 37bd
00000040: 4e87 01bd acee 18bd ef58 05bd 9d57 45bd
00000050: b187 1fbd 1720 40bd f6ae 963c 5667 20bd
00000060: f0f0 e3bc 6a3c 3fbd 0259 44bd 36c1 663c
00000070: 721a 0c3d aced 41bd 7aab 3fbd dd0e 16bd
00000080: de12 9e3d baf3 0cbd 1932 25bd 646c fbbc
00000090: d606 42bd e50c 10bd ac86 2dbd 2469 0c3d
000000a0: f4ab 21bd 6256 d7bc 905c a93c ed68 8d3d
000000b0: 576e b93c 490d d13b 06a7 2abd fcad 7f3c
000000c0: d611 063d b9f4 f4bc
-0.044264633 0.03568736 -0.023761759 0.031863708 -0.037088376 -0.040547557 0.027075598 0.064122654
-0.030074745 0.02552606 0.026797397 -0.01809731 0.05418478 -0.044154886 0.04616265 -0.04475507
-0.031623177 -0.03733699 -0.032555517 -0.048179258 -0.038947765 -0.046905603 0.018393975 -0.03916105
-0.027824849 -0.046688475 -0.047936447 0.014084151 0.034204908 -0.047345802 -0.046794392 -0.03663527
0.077184424 -0.034412123 -0.04033098 -0.030691333 -0.0473698 -0.035168547 -0.04236476 0.034279957
-0.039470628 -0.026286308 0.02067402 0.06904779 0.022635622 0.0063797575 -0.041663192 0.015605446
0.032731853 -0.02990185

bn1.weight f4 [50]
00000000: 0000 803f 7204 643f cbdf 683f f235 5c3f
00000010: a3ed 7b3f d8c1 763f 0b27 5a3f 7886 553f
00000020: 0000 803f 2e05 6d3f b541 4a3f f2bc 6c3f
00000030: ad96 6e3f 0000 803f db81 563f 941b 7d3f
00000040: 8753 773f 4ada 7b3f e189 7b3f 0000 803f
00000050: 0000 803f 0000 803f be56 473f f51e 723f
00000060: f0db 793f 4518 753f 0000 803f cac8 073f
00000070: a843 713f 784e 7d3f 0000 803f 3b4f 693f
00000080: f090 5c3f db2d 7a3f 0000 803f 0000 803f
00000090: 244c 793f 32f9 5f3f 1260 7d3f 8c7e 4e3f
000000a0: faf6 7e3f 9807 7e3f 8cd8 6a3f 7777 573f
000000b0: cf72 053f 44b9 453f e735 7e3f 9ab5 5a3f
000000c0: b9b2 5c3f e681 7e3f
1.0 0.89069283 0.9096648 0.86019814 0.9840948 0.9638953 0.85215825 0.8340831
1.0 0.9258603 0.7900651 0.9247581 0.93198663 1.0 0.83791894 0.98870206
0.9661183 0.9837996 0.9825726 1.0 1.0 1.0 0.77866733 0.94578487
0.97601223 0.9574016 1.0 0.53040755 0.9424386 0.9894786 1.0 0.9113652
0.8615866 0.9772622 1.0 1.0 0.97381806 0.87489617 0.98974717 0.80661845
0.99595606 0.9923034 0.91736674 0.84166664 0.5212831 0.7723582 0.99301 0.8543335
0.8621021 0.9941696

bn1.bias f4 [50]
00000000: 3698 9dbe a2c6 503e 6f03 ab3e c9f0 8fbe
00000010: ce49 a5be 1edf b93e b3bb a83e 4476 8a3e
00000020: de77 a83e d48c 86be 2ccb a23e 66ae b83e
00000030: f401 34be bcca 99be 3cae 8dbe 23f1 a83e
00000040: 1ccf a7be 5ecf a83e 056d 9fbe 0770 a03e
00000050: 4775 a2be 6c34 99be b2d0 7bbd 0c5e b23e
00000060: 4613 a9be 2efe a0be 69aa a7be 7651 cc3e
00000070: 3053 8fbe e803 9f3e 45fb a03e 4b86 6fbe
00000080: 9899 b13e 8380 c9be 4bc4 a23e dda1 9dbe
00000090: cc30 a1be 2362 bc3e 4aab a23e f99e 9a3e
000000a0: a012 a6be 3283 a9be 3688 cdbc da7c 8b3e
000000b0: 6401 c5be 525a af3e fa83 a43e be1d 9c3e
000000c0: 36f1 37be 9c14 a1be
-0.3078019 0.20388272 0.33401057 -0.28113392 -0.3228287 0.36303037 0.32955703 0.27043355
0.3290395 -0.26279318 0.31795633 0.36070555 -0.1757887 -0.30037487 -0.27671993 0.32996473
-0.327752 0.3297071 -0.31137863 0.3133547 -0.317301 -0.29922807 -0.061478324 0.34837377
-0.33022517 -0.31443924 -0.327472 0.399059 -0.27993155 0.31057668 0.31441703 -0.23391072
0.34687495 -0.3935586 0.31790385 -0.30787554 -0.31482542 0.36793622 0.31771308 0.30199412
-0.32436085 -0.33107907 -0.025089364 0.27243692 -0.38477623 0.34248596 0.3213194 0.3049144
-0.17963108 -0.31461036

bn1.running_mean f4 [50]
00000000: 0000 0000 94b2 383d 558e 8f36 6559 513d
00000010: 0400 0000 43be 0530 22c0 cb3c 2eb0 6e3d
00000020: 0000 0000 6649 f93c 0866 4f3c 31b9 4636
00000030: f896 833d 0000 0000 3b10 6b3d 0400 0000
00000040: 0400 0000 0400 0000 921b dd37 0000 0000
00000050: 0000 0000 0000 0000 736f 6e3c 0400 0000
00000060: 0400 0000 ed41 4c2d 0000 0000 2ba2 de3b
00000070: b23a 633d 0400 0000 0000 0000 a841 3f35
00000080: 2678 993d 0400 0000 0000 0000 0000 0000
00000090: 0400 0000 b999 0631 0400 0000 634f 223d
000000a0: 0400 0000 0400 0000 cfd4 0b3c a1a8 7d3d
000000b0: 8dff c53c c17a 803c 0400 0000 9543 da3c
000000c0: 0342 263d 0400 0000
0.0 0.04509218 4.2783017e-06 0.051110644 6e-45 4.8655496e-10 0.02487189 0.058273487
0.0 0.030430507 0.0126586035 2.9612095e-06 0.064252794 0.0 0.057388525 6e-45
6e-45 6e-45 2.6358091e-05 0.0 0.0 0.0 0.014552939 6e-45
6e-45 1.1610696e-11 0.0 0.0067942343 0.055475898 6e-45 0.0 7.1248587e-07
0.074936196 6e-45 0.0 0.0 6e-45 1.9586948e-09 6e-45 0.03962649
6e-45 6e-45 0.008534624 0.061928395 0.024169708 0.015683534 6e-45 0.026643554
0.040590297 6e-45

bn1.running_var f4 [50]
00000000: 0400 0000 4c88 3a39 2a8e 0f32 f052 2a39
00000010: 0400 0000 33e3 c72b 026f 5739 dc2f 1839
00000020: 0400 0000 d827 4a39 4565 fe38 7fca e831
00000030: 7e51 2b39 0400 0000 3c16 2239 0400 0000
00000040: 0400 0000 0400 0000 299f 5035 0400 0000
00000050: 0400 0000 0400 0000 b246 0539 0400 0000
00000060: 0400 0000 b18c 8929 0400 0000 7a62 b938
00000070: 48c0 3339 0400 0000 0400 0000 1183 0031
00000080: ac4e 7939 0400 0000 0400 0000 0400 0000
00000090: 0400 0000 0b02 612d 0400 0000 fb36 6439
000000a0: 0400 0000 0400 0000 ae01 f538 1c4b 5039
000000b0: 4afc a339 2b05 2839 0400 0000 e80c 3b39
000000c0: 8ac1 0939 0400 0000
6e-45 0.00017789117 8.35602e-09 0.0001624336 6e-45 1.4202861e-12 0.00020545351 0.00014513679
6e-45 0.00019279064 0.00012130527 6.77511e-09 0.00016338189 6e-45 0.00015457807 6e-45
6e-45 6e-45 7.7717647e-07 6e-45 6e-45 6e-45 0.00012710204 6e-45
6e-45 6.108428e-14 6e-45 8.83983e-05 0.000171424 6e-45 6e-45 1.8700954e-09
0.00023775798 6e-45 6e-45 6e-45 6e-45 1.2790223e-11 6e-45 0.00021764256
6e-45 6e-45 0.00011682823 0.00019864406 0.00031277753 0.00016023654 6e-45 0.00017838518
0.00013137437 6e-45

fc2.weight f4 [420, 50]
00000000: 9490 1a3f 81df 3abe 9fa8 07bf e4f8 303e
00000010: 7d1d 0e3f 747b 40bf 30f2 7ebe 6cd9 81be
00000020: 32cc 16bf 021b 513e 4564 44be 46b4 f5be
00000030: 097b e53d f847 dd3e e466 6d3e 3914 d7be
00000040: 4660 e43e 723f 15bf bca4 023f 16ee 33bf
00000050: 598d 1b3f 20bb e53e 2bee 2c3b b165 13bf
00000060: fafc 093f 36e8 bf3e a974 063f 65ed fabe
00000070: aefe 083e 2d57 f1be 8e7a c8be 62e8 9e3e
00000080: 0b82 58be 7e27 163f 1496 26bf b500 273f
00000090: fa6c 293f 08ae b8be 2a97 e1be d323 92be
000000a0: febd 183f 8de1 113f ba0b b63d 7aa5 78be
000000b0: c6da c53e ca3a aebe a212 16bf c7c3 94be
000000c0: 6417 073e 6b28 253f f4e4 103f 1430 79be
000000d0: 7439 f7be 7bc1 2c3e 5804 0d3f 0bcd 19bf
000000e0: 307e 63be 8aee 4bbe 03d7 29bf aa88 5f3e
000000f0: 9df2 49be fdde 12bf debd d23d e597 233f
00000100: a9f9 fa3d 572a 04bf 9941 0d3f 2955 ffbe
00000110: 0ea0 cd3e 06a9 ebbe d288 d43e 0ca2 273f
00000120: 8fc6 243c 6921 18bf e543 1c3f f210 de3e
00000130: 7277 173f 5c89 fabe 331a 363e cd1a edbe
00000140: 0618 0cbf 6853 cd3e 8774 61be 90cb 063f
00000150: 687d 27bf 3ee1 013f 6323 d33e eeb4 febe
00000160: e31b e6be 0f87 92be 5059 0d3f 9c31 1a3f
00000170: d9d2 d13d 9f66 44be 06dc be3e 68bd cdbe
00000180: ced2 05bf bc49 73be 3ec0 db3d 1c9c 0b3f
00000190: e6b2 93be fc1c 5cbd a168 373e 7d69 0cbe
000001a0: 0473 afbe b335 3c3e ede3 fc3b cb6a 423e
000001b0: aa13 c83e 4ba9 46bd 6e94 b03d fc2d 8b3e
000001c0: bc63 37bd 9b75 cfbe da82 963d a4d3 743e
000001d0: 4b40 8fbe 51d8 993e f794 99be b47c a23e
000001e0: 8526 b0be 1812 bdbe c0f8 f73c 6dd4 583e
000001f0: c8c5 b2be 9e97 7bbe 9684 a8be 8d00 e73d
00000200: d5db 49bd 06d3 ba3e 0bc0 d03e baa2 47be
00000210: ac38 d53d 1128 11be d588 a33e 72c5 c4be
00000220: ba40 b5be 7fb3 fb3d b954 c93e ef02 e93d
00000230: 6c1d 35be c31f c2be 5129 1f3e cce4 093e
00000240: c0c5 d8bd baae f23d 1077 c13e 94af 43bd
00000250: 8f27 a93c a655 b1be cbf3 8ebe ae01 c53d
00000260: 7631 673d 6c7f 15bd 0859 90be 3e5b ab3d
00000270: a4f4 593c 1404 be3d 01ca 9c3e 696b d23c
00000280: a29f babc a57a 6c3e 5a7f c33c 71a4 70be
00000290: c9b3 2ebc 78a7 823e 5568 24be 6c0c 503e
000002a0: a1de fbbc b8de 813e 62d6 a5be 91f4 7ebe
000002b0: a621 0d3c e318 c33d 56be 7cbe debb 18be
000002c0: dca8 c0be 868f a13d e4c1 2b3c 1a24 a03e
000002d0: ad8e a43e ed8d bdbd fa30 4b3d b7c3 43be
000002e0: d7d9 a43e 55f0 a0be 03ef 9dbe dee4 713d
000002f0: c5d4 b43e d9b3 a23d f4aa 61be 1c96 7bbe
00000300: c27e 97bd e556 643d 3eb3 4fbd 1b33 dd3d
00000310: 1f50 863e c0be e53d 194e 72bd 4889 5bbe
00000320: 48da 9cbe a6ed f13d 5785 2b3c 3bc7 74bd
00000330: 6e5d 2dbe 5825 803d 937e 1d3d 2765 0f3e
00000340: 5731 733e 8678 51bd f64f ab3d 93e0 1d3e
00000350: b3b5 833d 85de 8fbe f89a 233d 5ab8 9f3e
00000360: b7cd cebd 65e6 933e 9bce 4fbe 9f5a 033e
00000370: 2c1d 33be 32e8 29be 9ab6 e1bd d6f8 933c
00000380: 7392 66be da83 6bbe ae26 a4be 7a3e db3d
00000390: 2105 3a3d b3e7 173e 1e61 a53e 7a92 f3bd
000003a0: d3b9 be3c fbd6 efbd 4aee 303e 145c 85be
000003b0: 2770 30be b261 39ba 580e 673e 2609 4d3c
000003c0: 72b3 53be d5ab 80be 1dd6 1ebd fd37 6e3d
000003d0: ca1b fabd dca0 9a3c 1cf5 943e 5bdd ad3b
000003e0: 5622 1fbd 1a66 68be bf7c a5be ed1e a33d
000003f0: d25c 0e3e 9636 97bb bf6e 93be ac6c 673d
0.6037686 -0.18249322 -0.5299167 0.17282444 0.55513746 -0.75188375 -0.24897075 -0.25361192
-0.5890533 0.20420459 -0.19178875 -0.479891 0.11205108 0.4321897 0.23183781 -0.42007616
0.446047 -0.58299935 0.51032615 -0.70285165 0.60762554 0.44869328 0.0026387076 -0.57577044
0.53901637 0.3748185 0.5252176 -0.49009243 0.13378403 -0.47136822 -0.39156002 0.3103667
-0.21143357 0.5865401 -0.6507275 0.65235454 0.6618191 -0.36070275 -0.44060642 -0.28542957
0.59664905 0.5698479 0.088889554 -0.24281874 0.38643473 -0.34029227 -0.5862218 -0.29055616
0.13192517 0.645148 0.56599355 -0.24334747 -0.4828602 0.16870682 0.55084753 -0.60078496
-0.22216105 -0.19915214 -0.66343707 0.21829477 -0.19721456 -0.57371503 0.102901205 0.6390365
0.1225465 -0.51627105 0.5517822 -0.4986966 0.40161175 -0.46027392 0.41510636 0.6548164
0.010057106 -0.5942598 0.610411 0.43372303 0.59166634 -0.48932922 0.17783432 -0.4630951
-0.54724157 0.40102696 -0.22017108 0.5265436 -0.6542573 0.5073432 0.41237935 -0.49747413
-0.4494315 -0.28618667 0.55214405 0.6023195 0.10245294 -0.19179772 0.3727724 -0.40183568
-0.5227479 -0.23758596 0.10730027 0.5453508 -0.28847426 -0.05373858 0.17911007 -0.13712116
-0.34267437 0.1837986 0.0077176006 0.18986051 0.39077502 -0.048501294 0.08622061 0.2718352
-0.04477285 -0.40519413 0.07349177 0.2390886 -0.2797874 0.3004785 -0.29996464 0.31735766
-0.34404388 -0.36927867 0.03026998 0.21174784 -0.3491652 -0.24569556 -0.32913655 0.11279402
-0.049281914 0.36489123 0.40771517 -0.19495669 0.104112 -0.1417544 0.31940332 -0.3843189
-0.35400945 0.122900955 0.3932245 0.11377513 -0.17687005 -0.37914857 0.15543105 0.13466185
-0.10584593 0.11849733 0.3778615 -0.047774866 0.020648746 -0.34635657 -0.27920374 0.09619461
0.056443654 -0.036498472 -0.28192925 0.083670124 0.013302956 0.092781216 0.30622867 0.025685983
-0.022781197 0.2309366 0.023864437 -0.2350023 -0.010662981 0.25518394 -0.16055425 0.20317239
-0.030745806 0.25365233 -0.32390124 -0.24897982 0.008613979 0.09526231 -0.24681982 -0.14915416
-0.3762883 0.07888703 0.010483239 0.31277543 0.32140103 -0.09255586 0.049607255 -0.19117628
0.3219745 -0.3143336 -0.30846414 0.059056155 0.3531858 0.079444595 -0.2203787 -0.24568981
-0.07397224 0.05574693 -0.050708048 0.10800763 0.26233003 0.11218023 -0.05915651 -0.21439087
-0.30635285 0.11812906 0.010468802 -0.059760313 -0.16930172 0.06257123 0.03845079 0.1400343
0.2374929 -0.05114033 0.08364861 0.154177 0.06431141 -0.28099456 0.03994271 0.31195337
-0.10097831 0.28886715 -0.20293657 0.12827538 -0.17491597 -0.16592482 -0.110211566 0.01806299
-0.22516803 -0.22999516 -0.3206076 0.10705276 0.045415048 0.1483448 0.32300657 -0.118931726
0.023281967 -0.11710926 0.172784 -0.26046813 -0.17230283 -0.00070717477 0.22564065 0.012514388
-0.20673922 -0.25131097 -0.038778413 0.058158863 -0.122123316 0.018875532 0.29093254 0.0053059286
-0.038851105 -0.22695199 -0.32321736 0.07964883 0.13902596 -0.0046146614 -0.2879543 0.056500122

fc2.bias f4 [420]
00000000: a60c 94be c72c 14be 672d 493e e1b9 283e
00000010: f738 773e 5526 1a3e c059 86bd 8a48 cd3e
00000020: a05c c2bd 1725 cf3d c116 a3bc 042b 80be
00000030: 13c5 c23d d8c8 50be 02ae a7bd b034 bb3d
00000040: 0d82 513e 7bf3 7b3d 1808 b43d 9bcf 5c3e
00000050: 9dc4 903d bde1 0a3e ecca 9a3c dea4 e63d
00000060: 573d 503d 2e69 1ebe 5fba 37be 9b55 673e
00000070: dced 783e f9e0 68be 8f64 653d 7150 8ebe
00000080: 5e27 2d3e 6925 53bd 5655 f3ba 1e4f 0b3e
00000090: a0f3 a1bd b3a6 163e 1d18 79be ff74 fb3d
000000a0: 7827 9dbe 3b43 273d 5f06 2d3d e710 e93d
000000b0: a85f 58bc 74b6 38be d6d7 903d 4e6c 00bc
000000c0: 8756 47be 93ba 85be 2a38 5d3e b2d4 cbbd
000000d0: 94f9 80bd a699 74be ad2a d33c 33e0 fabc
000000e0: 4a1a 34be 6cfd 02bd b000 5abd 4561 69be
000000f0: 9336 18bd 7efd b3bd 8fae 5bbe e091 773d
00000100: f4ab 163d 02ab 163e a88c 643d f217 013d
00000110: fe83 7fbc f849 cfbd e5d1 dbbd 906b 13be
00000120: bf37 55be 8dd3 6a3d b2be 0bbb 0361 ba3d
00000130: f919 f0bd 9250 8abe f718 66bc ab42 3fbe
00000140: c259 29be 3888 efbd d215 8cbe fb3e 91be
00000150: 6683 a13d 1b66 42be 35df 13bd 110a a6be
00000160: faf7 18be edf3 21be 062e 70be 3b05 d53c
00000170: c1c2 713d dc0e b3be 2279 113b 99cf ddbd
00000180: b605 cabd e7f8 98be c9b1 48be 4ec1 a03d
00000190: a81f 18be a421 2bbe 462e ed3c 458d 88be
000001a0: 4e97 79bd bef0 32be 5cf0 9ebe c11b 9dbe
000001b0: 66e6 32be 7cdb 28be db56 83be b1b0 3fbe
000001c0: e698 7cbe 49b3 7abe efd5 bfbe 861f 25be
000001d0: 4598 33be 7a13 39be e3b6 e6bd 94f2 c0bd
000001e0: 97bf 86be e742 fabd 3d91 d5bd 1f42 2cbe
000001f0: e732 15be e856 73bd b2b2 2bbe 6a17 42be
00000200: b65b 3fbe a744 a3be ddd3 a2be 83d7 89be
00000210: 3b24 81be db63 41be 19dc 56be 7607 81be
00000220: 3052 78be 3afb 47be 0597 8cbd a189 7fbe
00000230: 1512 22bd 44c2 87bd 54e5 65be 14ec 30be
00000240: a0b4 3cbe a5b3 4bbe c951 5fbe b06b 61be
00000250: 6147 9abe cd34 29be 71f6 1fbe 6391 a2bc
00000260: 8599 98bd 2da8 14be d6ec c2bd e998 55be
00000270: 24db 6abe d2eb 0ebe 0d8d 80be ddd5 1abe
00000280: fee2 9ebe eb26 a0be f498 03bd 627a 1abe
00000290: 364c efbd 350a 3cbe 7b68 53be 3cff 46be
000002a0: 9d8e 75be a90e 15be 0774 4fbe c71f 1bbe
000002b0: 9c80 acbe 0bd3 c3be 4eff 4ebe 8117 c1be
000002c0: 9dbe 5abd 223c 91be 2c75 71be cbd4 eebd
000002d0: 70fa a2be c5a8 11be 3502 83be 9b4f 68be
000002e0: 7bab 8fbe 9948 83be abd3 b0be b11b e5bd
000002f0: 4fe3 adbe fb70 98be c25d bcbe 6c15 91bd
00000300: f3e9 09be e4d9 86be 3c64 48be eff9 abbe
00000310: e9ea aebd f33f d7bd e5c7 80be 3523 c2be
00000320: e356 43be f4c2 a4be 9a06 1bbe 5df6 27be
00000330: 554b 29be 1350 9bbe e1ad 34be b069 a4be
00000340: 163e 01be 2c9c 3bbe a93a 96be 526c 48be
00000350: 59b9 a4be 517c 79be bcd2 b5bd 80b2 05be
00000360: 402d 3abe 83ea 6abe 3ccf 73be 480d a2be
00000370: d308 7dbe f388 41be a1b8 f5bd b839 4ebe
00000380: 9159 5abe 1a8a b9be 4a4d 5cbe 030f 7cbe
00000390: f082 5bbe 2a3d bdbe 2710 82be dd3f 4abe
000003a0: 48a1 afbe 68ca 7ebe 395a a0be a9ef 89be
000003b0: ac6d d8be ba7c 06be 200e 88be 3682 c6bd
000003c0: c036 c7bd e771 a8bd 883d 3cbe f35d 0abe
000003d0: 4af6 c8be ea39 6cbe 26c2 8bbe 3ede 08be
000003e0: 6483 84be 421d f0bd 2375 9cbe f7a1 b5be
000003f0: 9ee6 8fbe a8aa 16be e687 78be 9788 1cbe
-0.289159 -0.14470206 0.19646226 0.16477157 0.24142824 0.15053685 -0.06560087 0.40094405
-0.09490323 0.10114496 -0.01990831 -0.25032818 0.09510245 -0.20389116 -0.08187486 0.09140909
0.20459767 0.061511498 0.08790606 0.2156357 0.07068751 0.13562675 0.018895589 0.11261915
0.05083975 -0.1546981 -0.17942189 0.2259125 0.24309486 -0.2274207 0.056004103 -0.27795747
0.16909549 -0.05154935 -0.0018564861 0.136044 -0.07907796 0.14712028 -0.24325605 0.122781746
-0.30694175 0.0408356 0.042242404 0.11380177 -0.0132064 -0.1803835 0.070724174 -0.007838322
-0.19466601 -0.26118907 0.21603456 -0.09952678 -0.06297603 -0.23886737 0.025777185 -0.030624485
-0.17588153 -0.031979963 -0.053223312 -0.22791012 -0.03716142 -0.08788584 -0.21453308 0.06044185
0.03678508 0.14713672 0.055798203 0.031516977 -0.015595434 -0.1012153 -0.107333936 -0.143965
-0.20822047 0.057330657 -0.002132338 0.09100535 -0.11723704 -0.27014595 -0.014044038 -0.18677776
-0.16538146 -0.116959035 -0.27360398 -0.28368363 0.078863904 -0.18984263 -0.03610154 -0.32429555
-0.14938346 -0.15815707 -0.23455057 0.02600347 0.059023622 -0.34972274 0.0022197445 -0.10830612
-0.098643705 -0.29877397 -0.1959907 0.0784937 -0.14855826 -0.16712052 0.028952729 -0.2667028
-0.06093531 -0.17474648 -0.31042755 -0.30685237 -0.17470703 -0.16489977 -0.25652203 -0.18719746
-0.24667701 -0.24482454 -0.37467906 -0.16125306 -0.17538555 -0.18073836 -0.112653516 -0.09421268
-0.26318046 -0.12219792 -0.10428093 -0.16822098 -0.14570199 -0.059409052 -0.16767386 -0.18954244
-0.18687329 -0.31888315 -0.31802264 -0.26922235 -0.25222954 -0.18885748 -0.20982398 -0.25201005
-0.24250102 -0.19529429 -0.06864742 -0.24954845 -0.039568026 -0.0662885 -0.22450763 -0.17277557
-0.18428278 -0.19892748 -0.21808542 -0.22013736 -0.30132583 -0.16524048 -0.15621354 -0.019844716
-0.074511565 -0.14517279 -0.09517829 -0.20859112 -0.22935158 -0.13957146 -0.25107613 -0.15120645
-0.31032556 -0.31279692 -0.03212829 -0.15085748 -0.11684458 -0.18363269 -0.20645325 -0.19433302
-0.23980184 -0.14556374 -0.20259105 -0.15148841 -0.3369187 -0.3824695 -0.20214579 -0.37713245
-0.05340444 -0.2836619 -0.23579854 -0.11661681 -0.31831694 -0.14224537 -0.2558762 -0.22686617
-0.28060517 -0.25641325 -0.3453649 -0.11186922 -0.33962485 -0.29773697 -0.36790282 -0.07084164
-0.13468151 -0.26338112 -0.19569486 -0.33589122 -0.08540899 -0.10510244 -0.25152507 -0.37917486
-0.19076113 -0.32179987 -0.15139237 -0.16402574 -0.16532643 -0.3033453 -0.17644455 -0.32111883
-0.1262134 -0.18321294 -0.2934163 -0.19572571 -0.3217266 -0.24363829 -0.08878085 -0.13056374
-0.18181324 -0.22941022 -0.23809522 -0.31650758 -0.24710397 -0.18899898 -0.11998106 -0.20139205
-0.2132323 -0.36238176 -0.21513858 -0.24615102 -0.21436667 -0.36960727 -0.25402948 -0.19750924
-0.34302735 -0.248819 -0.31318834 -0.2694066 -0.42271173 -0.13133517 -0.26573277 -0.096928045
-0.097272396 -0.0822485 -0.18382847 -0.13512401 -0.39250404 -0.23068967 -0.2729656 -0.13366029
-0.25881493 -0.117243305 -0.30558118 -0.35475132 -0.28105634 -0.14713538 -0.24270591 -0.1528648
